Alphabet Hand Sign Recognition/model.tflite (tflite, 846136 bytes, 12 tensors)

sequential_1/dense_3/BiasAdd/ReadVariableOp f4 [27]
00000000: 64c5 2e3d a85a ac3d 2f20 d8bd 6b43 c5bd
00000010: a081 b3be aa91 0cbe c008 f6bd e674 e83b
00000020: 2c6f 2ebd 061d 83bd e234 293e e14f d13d
00000030: a3b2 8bbd 6c99 20be 4512 abbd f59c 0dbe
00000040: 2758 80be 6410 83b7 4e45 68be 8e43 8abd
00000050: 20de ef3d 14d5 063f 6c4e 14ba 1427 fe3d
00000060: 2ef4 75be bd34 96be 7b8c 0bbe
0.042668715 0.08415729 -0.105530135 -0.096319996 -0.35059834 -0.13727441 -0.12013388 0.0070940135
-0.04258649 -0.0640202 0.1652408 0.10220314 -0.068211816 -0.15683526 -0.08353094 -0.13829406
-0.25067255 -1.562405e-05 -0.22682688 -0.06751166 0.11712289 0.5266888 -0.0005657438 0.12409797
-0.24018928 -0.2933711 -0.13627808

sequential_1/dense_2/BiasAdd/ReadVariableOp f4 [128]
00000000: 121f 093d 9646 513d c92d 763d ebdd 613e
00000010: 24e9 603e dacd 36bd 9823 ea3c bdbd 8a3d
00000020: 1c79 ecbd 903c c2bc d96a ac3e 8098 72bd
00000030: 5d91 dabd 1232 dabd 3aa8 343e 0095 fa3c
00000040: dc4a 11be 1313 9dbd 0665 a0bb fa4c 6ebd
00000050: c20f 1abd 306b 173e a11b f0bb a31b 703d
00000060: 2199 dc3d fa59 313e 14b9 08be 21b8 523c
00000070: 2531 f53d 87e8 5fbd 8c03 a3bd b532 b7bc
00000080: c613 f9bd b296 8bbc 0deb ab3c 7c78 cfbb
00000090: c519 0d3e 8dc3 7bbd d823 29bd 2de8 aa3c
000000a0: 536b c43d 5f7e b23b d726 46bc 8651 0d3e
000000b0: af24 62bd cdeb 0fbe a723 933a 44d1 82bd
000000c0: d8fd 6fbc 17de 2ebd 7658 6f3e b341 303d
000000d0: 7e20 afbd 9eb8 b93d 5131 0cbe 78b8 9d3c
000000e0: 0768 32bd 8583 99bd 685d 15bd c886 3c3d
000000f0: c644 54bc 33b0 613d 713f 9cbd 7a33 c4bd
00000100: 1ec5 0b3e 5fad c73c 2b66 64bd 25b0 bcbd
00000110: 3bd4 16bd 5d40 e23d f1fd dfbc 7cba 063c
00000120: 2df1 803d 7754 42bc 928b 09be f569 de3c
00000130: f45a 86bd 223a 6fbd ca36 ad3b 8489 51bd
00000140: da59 0d3e 3408 54bd 23fd aebd 5bfd 2fbd
00000150: ba41 d7bc 1f0c 833c ea02 463e 331c 3abd
00000160: b14e 933d 9c67 cb3b 58ea fbbb b2b7 2d3d
00000170: 100b 423d 87ed 0d3d 7fbb 143e 5c42 a13c
00000180: a008 2b3d 0b84 393d 99f3 87be ba34 6d3d
00000190: a2e4 b0bd 9e82 943e 4d7e 563e acab 853d
000001a0: b86c 1b3e f293 8bbd 00fe b23c 7eb8 9dbd
000001b0: 85dc 03be a950 a13d f8f0 33bd 8559 b9bc
000001c0: ad7b 033e 49ed 263e 3eb5 453e 2264 963d
000001d0: f557 83bd 06ca f1bc d4d1 603e 2898 07bd
000001e0: 7134 98bc 1339 43bd 1e8d 993d d818 353e
000001f0: cd5e a2bc cfdc bb3d 3a17 bebd 5212 633e
0.033476897 0.051092707 0.060102258 0.22057311 0.21963936 -0.04462991 0.028581426 0.06774471
-0.11546537 -0.02371052 0.33675268 -0.059227467 -0.10672257 -0.106540814 0.17642298 0.030588627
-0.14188713 -0.07669654 -0.0048948554 -0.05817888 -0.037612684 0.14786983 -0.0073275124 0.058620106
0.107713945 0.1731948 -0.13351852 0.012861283 0.11972264 -0.054665115 -0.07959661 -0.022363046
-0.121619746 -0.01703963 0.020986104 -0.0063315015 0.13779362 -0.06146579 -0.04129395 0.020862663
0.09590783 0.0054471935 -0.012094221 0.1380063 -0.055210765 -0.14054795 0.0011225835 -0.063875705
-0.014647923 -0.04269227 0.23373589 0.043031406 -0.08551119 0.09068416 -0.13690688 0.019253
-0.04355624 -0.074957885 -0.036466032 0.046026975 -0.01295585 0.055099677 -0.07629288 -0.09580131
0.13649413 0.024374662 -0.055761497 -0.092132844 -0.036823492 0.110474326 -0.027342768 0.008223172
0.06296001 -0.011860958 -0.13432148 0.027150134 -0.06560317 -0.05840505 0.0052860724 -0.051156536
0.13803807 -0.051765636 -0.08544376 -0.042966228 -0.026276458 0.01599699 0.19337049 -0.04543705
0.071927436 0.0062074196 -0.007687848 0.042411514 0.04737383 0.03465035 0.14524649 0.019684963
0.041756272 0.04529194 -0.26553038 0.057911612 -0.08637358 0.29005903 0.20946617 0.065268844
0.15178192 -0.06815328 0.021849632 -0.07701205 -0.1287709 0.07876713 -0.043930978 -0.022625694
0.12840147 0.16301455 0.1930742 0.073433176 -0.06413261 -0.029515278 0.21955043 -0.033104092
-0.018579694 -0.047661852 0.07497619 0.17685258 -0.019820595 0.09172975 -0.09281774 0.22174957

sequential_1/conv2d_5/BiasAdd/ReadVariableOp f4 [64]
00000000: 1050 133d 002b 343d 77d6 0e3c 1001 27bc
00000010: 7aec 41bd afff d6bd 3ad3 0dbd 98ae 0cbd
00000020: b187 6bbd 8a74 0dbe b025 40bd fab6 e83d
00000030: c3e1 cabd 8f23 3a3e 929c 003c 93ee a7bd
00000040: 582f 1e3b 48cc 2e3e 8d0e a8bc 8843 57bc
00000050: 0d03 54be db70 51bc 9a0f bebc 4510 033e
00000060: 4d0d 48bd 7b99 67bd 0bdd 58bd 7cff 913d
00000070: 16d5 9f3b 5758 10be 31e0 513e e169 d0bd
00000080: 38a3 0f3e 302d edbd e5f8 86bc 6bb8 73be
00000090: 5632 86bd 38a2 a6bd 70fb 7e3d 91e0 903d
000000a0: 3487 413e 8d6c 343e 8f10 4fbd 90f4 91b9
000000b0: c3fe 273e 6eca 953d 77db 82bd db75 663e
000000c0: 5d8b e43d 6312 0f3e d0a8 0fbe d52a 883d
000000d0: 2e42 c1bd 129c cb3c 6c72 023e 22dc d0bc
000000e0: 6ff7 fbbd cd69 0dbd d239 873d af22 efbc
000000f0: cb78 013d 80aa 47bd f9c1 973d 2b3d dc3c
0.035965025 0.04398632 0.008718125 -0.010193124 -0.047344662 -0.104979865 -0.03462527 -0.034346193
-0.057502452 -0.13813987 -0.04691094 0.11363025 -0.09906342 0.18177627 0.007849829 -0.08199801
0.0024137106 0.17070115 -0.02051475 -0.013138659 -0.20704289 -0.0127832545 -0.023200799 0.12799175
-0.04884081 -0.056542855 -0.052945178 0.07128808 0.0048776967 -0.14096199 0.20495678 -0.10176445
0.14027107 -0.115808845 -0.016476104 -0.23800819 -0.065525696 -0.081364095 0.06225151 0.07074083
0.18899232 0.17619534 -0.0505529 -0.00027838768 0.16405778 0.07314001 -0.06389516 0.22505896
0.11159394 0.13971858 -0.1402924 0.066487946 -0.09436451 0.024854694 0.12738961 -0.025495593
-0.123030536 -0.034524728 0.06602825 -0.029191343 0.031609338 -0.048746586 0.07410044 0.026884636

sequential_1/conv2d_4/BiasAdd/ReadVariableOp f4 [64]
00000000: 4a5a 5ebe c2e4 65bc a306 033e db37 31be
00000010: ed05 d43c 65c2 babe 8639 fcbd 06ea 2abd
00000020: 1a82 e8bd fae6 3e3e bd83 82bd 4885 68be
00000030: e345 f2bc f1c6 3b3e 3b57 02be 67bb 203e
00000040: 34a3 483d e426 363e 0b30 153e e383 a4bd
00000050: 38ef 81be e76f 8c3e 7dbb 993d 5391 eebc
00000060: 84df 55bd 64fd f03d a607 8bbd c563 37be
00000070: 7646 3cbe 0532 f2bd 4956 6b3b 3798 3c3d
00000080: 645a 43be 0d39 46be f206 14be 813e 25be
00000090: 31c5 89bd 95d5 33be 8d1a a1be a569 f03d
000000a0: 73bf ce3d d74e 803d 03f3 d7bc 59d1 2fbc
000000b0: fd72 5abe 22fc 69bd 6ac1 d2bc 7e9d 573c
000000c0: 7db1 b53d 96de cdba c531 6b3e f5d5 a9bc
000000d0: b70b 72be e783 9bbd 7485 cf3c 1c96 3d3d
000000e0: 5f7d 3cbe 4e1a 353e 2963 533e 90f7 a93d
000000f0: d95b 2b3d 5e9c 403d e3d7 bb3c 5813 433c
-0.2171413 -0.014031591 0.127955 -0.17306463 0.025881732 -0.36476436 -0.12315659 -0.04172709
-0.1135294 0.18642798 -0.06372783 -0.22707093 -0.02957434 0.18337609 -0.12728588 0.15696488
0.048983768 0.17788273 0.14569108 -0.08032968 -0.25377822 0.27429125 0.07506464 -0.02912203
-0.052215114 0.117670804 -0.06788568 -0.17909153 -0.18386254 -0.11825947 0.0035909584 0.0460436
-0.1907745 -0.193577 -0.14455774 -0.16137125 -0.067270644 -0.17561944 -0.3146557 0.117389
0.1009511 0.062650375 -0.026360994 -0.010731065 -0.21332927 -0.05712522 -0.025726993 0.013160108
0.08871744 -0.0015706595 0.22968204 -0.020731905 -0.23637281 -0.07593518 0.02533219 0.046285734
-0.184072 0.17685816 0.20643295 0.08299172 0.04183564 0.047024123 0.022930091 0.011906467

sequential_1/conv2d_3/BiasAdd/ReadVariableOp f4 [64]
00000000: e683 05be be58 a3bc f96d 70bd 8ea1 b1be
00000010: a5fd 8bbe 8ba2 4abc 2885 10bd f0b9 66be
00000020: fc1e a0bd cf5c 17bd a4b8 46be c227 86be
00000030: 4e47 93bd dce2 29be c17d 04be ce7a 72be
00000040: f3b6 99bd b261 7bbb 634c cabd 25e5 d6bd
00000050: 0d76 91bd a98c d3bd 730d f6bd 5c33 43be
00000060: f15a 78be 115f 48bd f334 8abd 0b1d a3be
00000070: 0d1d f9bd 60e3 91be fc66 88bd f8ea 81bd
00000080: 6c9f 93be a9d8 c6bd 06bb 38be 8361 a6bd
00000090: 98df 41be d799 20bd 9ce4 b6be 3f49 e8bd
000000a0: e65a c3be 26b5 ac3c 9687 2abe be9a 52be
000000b0: 45f1 56be 0457 e5bd 6158 e9bd 54b0 66bd
000000c0: 96a7 27be 8d93 74bd b9b8 b5bd a145 64be
000000d0: 4d62 3e3c 3257 9ebe db17 1ebd c0dc a2bd
000000e0: 0f11 a8bd 56b3 25be 1add f2bd 44f1 adbc
000000f0: e8df 89be 7fea 2ebe 15ea 2bbe 6bc3 86be
-0.13038597 -0.019939777 -0.058698628 -0.3469357 -0.27341953 -0.012367855 -0.035283238 -0.22531867
-0.0781841 -0.036953744 -0.19406372 -0.26202208 -0.07191335 -0.16590446 -0.12938596 -0.23679659
-0.07505598 -0.0038357791 -0.09877851 -0.104929246 -0.071025945 -0.10329563 -0.12014284 -0.19062561
-0.24253441 -0.048918787 -0.067483805 -0.31858096 -0.12163744 -0.28493786 -0.06660268 -0.06343645
-0.28832567 -0.097092934 -0.18040094 -0.08124068 -0.1893295 -0.039209213 -0.3572129 -0.113420956
-0.38155288 0.021082472 -0.16653284 -0.20566842 -0.20990475 -0.111982375 -0.1139381 -0.056320503
-0.16372523 -0.059711028 -0.08873124 -0.22292186 0.011620116 -0.309259 -0.03859697 -0.07952261
-0.08206379 -0.16181692 -0.11858578 -0.021233208 -0.2692864 -0.1708164 -0.16788514 -0.26320967

sequential_1/batch_normalization_1/FusedBatchNormV3 f4 [3]
00000000: 07c5 d43b 27c8 0a3c b4ce df3b
0.006493214 0.008470572 0.006830061

sequential_1/batch_normalization_1/FusedBatchNormV31 f4 [3]
00000000: 3858 44bf 46f4 80bf 781b 4dbf
-0.7669711 -1.0074546 -0.8012004

sequential_1/dense_2/MatMul f4 [128, 1024]
00000000: dd51 273d ac17 42be 042a e6bd 2156 62be
00000010: b8bc 623d 2b7c 4e3e 9a90 4c3d ef50 863d
00000020: 0a28 4abe 6076 10be ee38 273d 56a7 c1bd
00000030: 9a43 65be 8306 1bbd 64e7 3fbb 6c9a 14bd
00000040: 26c5 bd3d 68dc 5bbe 3358 86bd a8dc 16be
00000050: 13a1 28bd 359b 013d f7d3 a43d b63d 7cbc
00000060: c155 a23d 28ae 95bc 86f0 103e 2a05 c83d
00000070: 073f c13d 4e39 cabd 324a c63d 057e 703d
00000080: a38e 363e 1e96 d4bd 681c e03c bd4e a33d
00000090: 2067 053e 050e 37be 0661 d0bd db01 49be
000000a0: 6d85 14be a75b 9d3c 0197 423d 7f72 1c3d
000000b0: 9041 68be 0a8b 8b3c 6f65 cbbd 0002 5e3c
000000c0: 305d 03be 711d 22bc 6d29 d6bc 7c8f 18be
000000d0: d696 75bd 1b3e 3a3e a21d 273e 156c d9bc
000000e0: 757c 3b3e 802b 163e d719 a33d 099f b43c
000000f0: f0b7 00be 3b7a cd3d 7ef7 c23c bf15 9f3c
00000100: bc09 973c 9f1b e6bd 4f70 7ebe 05d3 a9bd
00000110: 9aef 933d 0251 f13c 4097 b73d 6695 393e
00000120: d6d0 dfbd de0e b83d abc9 003d ad67 3cbc
00000130: f55f 9bbd a7c8 2b3d aa8e cc3b 69fc dfbd
00000140: 29c4 ff3d 5994 57bd 6ea3 9b3c 5306 5abc
00000150: 4962 95be a754 db3c 08b7 903d 9229 983d
00000160: 57a6 0bbc 40e7 93ba 8d5e 233e 2d9f 8cbd
00000170: 456e e9bd acf4 183d 462d f3bd c88b f0bc
00000180: 54bc 0d3d 6448 07be f03f e43d 59eb dcbd
00000190: 5b00 053d 3a8b b6bd d396 84bc f894 c4be
000001a0: 44d7 76bd 823e cfbd 8ab0 af3d 79ae 5bbe
000001b0: 094a 19be e9da 59be d331 2bbd 6bb6 8b3e
000001c0: 5514 05be 54f4 e03d 60a6 74bd 998b a23d
000001d0: 58db e0bd 5f78 2abb 2fa2 5b3d d27c 09bd
000001e0: a508 563e 8edf 073e 7242 263e a482 10be
000001f0: 9eb0 26be 90af e73d 93f1 e03d 3f75 3f3e
00000200: 042c 8d3e 9a1e 67be b04c 57bd fb46 543d
00000210: d843 34bc 9596 66bc 7594 b33d 1b92 d7bc
00000220: ec8e 2ebe 9494 ddbd aeaf 6cbd cfbb 153e
00000230: 5fc6 503c 503e 82bc ae42 8b3d bda4 44bd
00000240: d094 0a3e 027b d2bd 47ca 11bd 234d 16be
00000250: 725f bb3a 473f 0bbe d79b 5a3e 576a 8dbd
00000260: e81f 213e 4cb4 053d dc3f a0be 1e01 8bbd
00000270: 19aa 2fbd 4932 1a3e 5226 4cbe e9d7 6abd
00000280: 8aa0 443e 8778 57be 1cac 3a3d 356d 15be
00000290: 33a0 46bc d255 1fbe 216f b4bd 647d 26be
000002a0: fc20 cfbc 7f0f d93d a387 0bbe ff06 43bd
000002b0: e416 39bd 12f7 23be 88bc cf3d 3cc5 25bd
000002c0: 59f4 53bc ca65 a73d 13b0 20be 52e9 79bd
000002d0: 614e e83c 377f c9bb 5980 6b3d 0c6b 59be
000002e0: 9b86 243e ae26 843d e64d 4f3c f8b2 b2bd
000002f0: faca 53bc 8779 2cbe a733 0a3d 97fb 833d
00000300: e4ee 91bd df50 2d3e 63f7 44be 829b 3bbe
00000310: 209b 38bd e10e 853c a16d df3d c272 9dbd
00000320: 130f 2ebe c65d fc3d 8e4d b43c b5f3 0a3e
00000330: 6dd2 063e fad2 33bc affe cd3d 0165 f23d
00000340: a0f8 7d3d e7cc 203e 4382 ec3c af33 debc
00000350: 0081 a1bc 2dcf 4d3e 35b7 d9bc b042 713e
00000360: 5d0a 08bd 8cdd 32bc ec11 08be 4c3b 26bd
00000370: a992 6bbe 2020 fc3d 6e08 5cbe 7820 8e3d
00000380: 1213 1d3c 21d1 d7bd ddf5 5cbd 3b01 e8bd
00000390: 70fe 80bd 3a61 b9bd 78ac f6bd 38c4 5cbe
000003a0: 84fa f3bd 812a b839 5238 8d3c 9a8a 87bd
000003b0: 882b 793d 9b97 9c3d 2de6 01be 6c6a 2f3d
000003c0: 9328 d4bd 73c5 153e ebb6 983d 048e 91bd
000003d0: 37b7 883d 21a4 a6bd 4fb6 433e 63fb 0bbe
000003e0: f4c1 193c 7a3c 0dbd 135e acbd 7613 9a3d
000003f0: 8cf1 f9bd fc00 dfbd 774c 563e e4b9 36bd
0.040849555 -0.18954343 -0.112384826 -0.22103168 0.055355757 0.20164554 0.04994259 0.065584056
-0.19741836 -0.14107656 0.040825777 -0.09455745 -0.22389069 -0.037848007 -0.0029282207 -0.03628008
0.09266119 -0.21470797 -0.065597914 -0.14732611 -0.041169237 0.031642158 0.080482416 -0.015395572
0.079265125 -0.01827152 0.14154252 0.0976661 0.0943585 -0.09874211 0.096821204 0.05871393
0.17827849 -0.10380195 0.027357295 0.079740025 0.1302762 -0.17876442 -0.10174756 -0.19629614
-0.14504023 0.019208742 0.04750729 0.03819513 -0.2268126 0.017034072 -0.09931456 0.0135502815
-0.12828517 -0.009894715 -0.0261428 -0.14898485 -0.0599583 0.18187754 0.16319898 -0.026540795
0.18309195 0.14665031 0.07963913 0.02204849 -0.12570167 0.10033079 0.023799654 0.019419549
0.018437259 -0.11235737 -0.2484753 -0.08292202 0.07223435 0.029457573 0.089643955 0.18123397
-0.10928504 0.08987211 0.031442326 -0.011499328 -0.07586662 0.041939404 0.006242593 -0.10936815
0.124885865 -0.05263171 0.018998828 -0.013307172 -0.29176548 0.026773764 0.070661604 0.07429804
-0.008523545 -0.0011284128 0.15954037 -0.06866298 -0.11397985 0.037342712 -0.118738696 -0.029363528
0.03460343 -0.13211209 0.111450076 -0.107870765 0.032471042 -0.08913274 -0.0161852 -0.38394904
-0.060263887 -0.10119344 0.08578594 -0.21453275 -0.14969648 -0.21274914 -0.041795563 0.2728761
-0.12996037 0.10984102 -0.05972898 0.079367824 -0.109793365 -0.0026011688 0.053621467 -0.033566304
0.20901735 0.13268873 0.16236284 -0.14112335 -0.16278312 0.11312783 0.109835766 0.1869707
0.27572644 -0.22570267 -0.05256337 0.051825505 -0.011002503 -0.0140739875 0.0876855 -0.026314786
-0.17046708 -0.10819355 -0.05778473 0.14622425 0.012742608 -0.015898854 0.067998275 -0.04800867
0.1353333 -0.10277368 -0.035593297 -0.14677863 0.0014295413 -0.13598357 0.2134851 -0.06905048
0.15734828 0.032642648 -0.3129872 -0.067873225 -0.042886827 0.15058245 -0.19936493 -0.057334814
0.19201866 -0.21042071 0.045574293 -0.1459244 -0.012123155 -0.15560082 -0.08810259 -0.1625877
-0.025284283 0.10598659 -0.1362596 -0.047614094 -0.045187846 -0.16012219 0.10143381 -0.0404713
-0.012936675 0.081737116 -0.15692167 -0.061013527 0.028357686 -0.0061491984 0.05749545 -0.21232241
0.16066973 0.0645269 0.01265285 -0.08725542 -0.012926811 -0.16843234 0.033740666 0.06444471
-0.07125643 0.16925381 -0.19234996 -0.1832104 -0.045069814 0.016242446 0.10909582 -0.07687904
-0.16997938 0.12322573 0.022009637 0.1356953 0.13166209 -0.010975594 0.10058343 0.11835671
0.062004685 0.15703164 0.028870707 -0.027124254 -0.019714832 0.20098563 -0.026576618 0.23560596
-0.03321301 -0.010917079 -0.13288087 -0.040583894 -0.23005165 0.12310815 -0.2148759 0.06939787
0.009587066 -0.10537935 -0.05394541 -0.1132836 -0.0629853 -0.090517476 -0.120446146 -0.21559227
-0.119130164 0.00035126883 0.01723877 -0.06618233 0.06083253 0.07646104 -0.12685461 0.0428261
-0.103593014 0.14626102 0.07456764 -0.071071655 0.066755705 -0.08136774 0.19112514 -0.13670115
0.009384621 -0.034481503 -0.08416381 0.07523243 -0.122042745 -0.1088886 0.20927607 -0.044610873

sequential_1/dense_3/MatMul f4 [27, 128]
00000000: 199b 4d3e d30a 393e baa3 f0bd d619 7fbc
00000010: 6dc8 093e d9d5 f13d e3b5 da3d 04e0 a6be
00000020: a1f9 59be 94e1 823b f645 cabe 1c03 a2be
00000030: 0f24 56be 5e17 88be 5048 5bbb 2d97 1abe
00000040: 1a55 dcbc 82f7 11be 1539 273e 4fce 56bd
00000050: 81db c13d 8992 103e b9fb 153e f5c8 95be
00000060: dec4 17be f3d6 4b3c aa2a f1bd edac 3a3e
00000070: 5f1b 473d 11eb 1bbe 187a cfbd ccdb 0a3e
00000080: 7302 91bc 9e8d bebd 8f70 3e3e 25b4 19be
00000090: 61b1 c9bd 58e9 033e 5973 07be 788b 58be
000000a0: e9ae f53d e8ad 0b3e 820f 5c3e 4b30 bf3c
000000b0: 3e00 76be fe54 33be f40a 0e3e 1823 81be
000000c0: 370c 6b3d 359e 543e 9ad2 56bd 76d4 7cbe
000000d0: d08d 77bd 9f93 4fbe 8e50 45be 4b68 f5bd
000000e0: 4c7b 3fbc 7be3 833d bb47 023d fd6c 8a3e
000000f0: b7a9 6f3e 682f 06be d68b 0cbe e564 14bd
00000100: 2041 ca3b ca4a 5b3e f898 8fbd 7a42 5b3d
00000110: ae94 49be 58f1 72be 8425 d43d 6e24 2c3e
00000120: b557 97be e773 09bd 9546 453c e826 663d
00000130: 8790 9bbe a923 ddbe 5ad8 193e 5adb e0bd
00000140: 4004 ea3d e334 91be 87fc 07be 719c 923d
00000150: 8d26 e93d 01b2 8dbe c940 66bd c7ae 593e
00000160: e3da c4bd e6b8 2cbd fd91 cf3b 425a abbd
00000170: d6dd fb3b 92e2 97be c3d8 23be 6833 2c3e
00000180: 83aa 5cbe 4073 c23d 4035 2f3e 91cd 073d
00000190: 7a8b a43d 58cc a7bd a949 163d 821f 24be
000001a0: 108c 7f3e d7b1 133e b43c 83bd 18ee 1abe
000001b0: 7902 8dbc a9aa cdbe d4ff 0a3e 1a13 62be
000001c0: d1e7 43be 9144 1bbd 18d1 d2be 795e 9c3c
000001d0: d012 5ebe cae1 a9bc 952a 83be 1a22 bbbc
000001e0: 98a7 e23b 30ed 7f3d 05a6 813d a67e 3c3e
000001f0: 37ad 89be 6947 95be 5e4b 9dbe 4fc7 c03d
00000200: a65c 82be 5893 43be 4925 143d 98dd 6bbd
00000210: 3613 103e 7e0c 7cbd 1d85 6dbe dd8a 4a3e
00000220: 0591 debe aabe 4cbe 1a4e 2f3e e9cc d4bc
00000230: 1253 c1be ccc8 a4be 0749 493e fd9a 35be
00000240: 8d8d 1bbe b4c3 973c cfae 79bd 44d6 b7bd
00000250: ef94 55be ce51 1d3e 7366 5abe e62e ee3d
00000260: 7499 22be cd44 83be 6481 d0be 9574 193e
00000270: e280 1e3c 4e86 c53d 7b88 38be 4835 3a3e
00000280: c621 d6bd 2e91 f2bc 55c2 e03c e05d bdbc
00000290: 61c9 a8be 238a 0bbe 0080 e5bd 3f6c fe3d
000002a0: 4986 2e3e 0d13 233e acf5 7dbe c53c 2b3e
000002b0: 2bc4 12be 5145 77be 24c6 14be c08b 0bbe
000002c0: 2f5d 123e c91c 86bc 1d28 713e 44a3 4ebe
000002d0: 0156 4cbe 4541 89be a4a5 6bbe 6592 3e3e
000002e0: 25a6 16be 2636 97be e803 72be 5093 8abe
000002f0: 56a0 7c3e 6fbf 4a3e b63b 2dbe ae43 8fbd
00000300: da63 2e3e ab0f f3be 032a 9ebe 4662 16be
00000310: 85e1 143d c5d5 fbbd 466d 173e bac5 fc3d
00000320: e424 88be 87ed 433e 3d03 823b 0856 87bd
00000330: 1d46 b9be 73db 65bd 9e5e 04be d7a5 92be
00000340: e206 613e 49d1 80be bb5e 29be 08a6 d8bd
00000350: bd4f c3bd f89c d73d 2f92 0e3d 8d81 2dbe
00000360: a5de 8fbe d7b6 37bd defd d13e 2cd0 c0bd
00000370: 19f0 1f3e ceb4 b5be a821 7b3d 2aff e5bc
00000380: fa58 25be efac c73d e400 c13d 1fdc 783e
00000390: b43d 40be bae5 9abe a9ba 5a3c f722 543e
000003a0: c014 b13d 9c1c bd3e 7d1d 8ebe 3ab3 b13d
000003b0: e4a6 423e 8556 383e 67d5 7dbe a283 cabe
000003c0: 5e67 ca3c d37c 9e3d 0807 91be 757b b43d
000003d0: ad20 a6bd ee45 b3be 1c88 b5be bb33 7fbd
000003e0: 5c0a c53d 42aa 423d 5aab a93d 3a62 b4bc
000003f0: 4d8d 81be 0e71 94be cb75 f1bd c073 b03d
0.20078696 0.18070535 -0.11749978 -0.015570125 0.13455363 0.11808366 0.106792234 -0.32592785
-0.21286632 0.003994176 -0.395065 -0.31642997 -0.20912193 -0.26580328 -0.003345985 -0.15096731
-0.026896048 -0.14254573 0.16330369 -0.052442845 0.09465695 0.14118399 0.14646806 -0.2925488
-0.14821193 0.012441385 -0.11775716 0.18230028 0.048610087 -0.1522639 -0.101307094 0.13560408
-0.017701363 -0.09304355 0.18597625 -0.15010126 -0.098482855 0.12881982 -0.13227595 -0.21146953
0.11996252 0.13640559 0.21490291 0.023338458 -0.2402353 -0.1751289 0.13871366 -0.25222087
0.057384696 0.20763476 -0.05244694 -0.24690422 -0.060437977 -0.20271157 -0.1926901 -0.11982783
-0.011687111 0.06439873 0.03180669 0.27036276 0.23404585 -0.13104022 -0.13725218 -0.036229033
0.0061723143 0.21415249 -0.07011598 0.053530194 -0.19685623 -0.23724878 0.10358718 0.16810772
-0.29559103 -0.0335578 0.012040754 0.056189448 -0.30383703 -0.4319127 0.15023938 -0.10979338
0.11426592 -0.28360662 -0.13279925 0.07158745 0.11384306 -0.2767487 -0.056214128 0.21258079
-0.09612062 -0.04216852 0.006334542 -0.08366825 0.007686357 -0.29665047 -0.16000657 0.16816485
-0.2154942 0.094946384 0.17110157 0.033155028 0.080344155 -0.08193272 0.03669134 -0.16027644
0.24955773 0.1442331 -0.064080626 -0.15129888 -0.017213093 -0.40169266 0.13574153 -0.22077599
-0.191314 -0.037907187 -0.4117515 0.019088017 -0.21686864 -0.020737547 -0.25618425 -0.02284341
0.0069169514 0.06248206 0.06330494 0.18407688 -0.26889965 -0.29156044 -0.30721563 0.09413015
-0.2546131 -0.19099176 0.03616837 -0.057584375 0.14069828 -0.06153535 -0.2319531 0.19779535
-0.43470016 -0.19994608 0.17119637 -0.025976615 -0.3775869 -0.32184446 0.19656764 -0.17734905
-0.15190716 0.018525936 -0.060957726 -0.08976415 -0.20857595 0.15363237 -0.21328144 0.11630039
-0.1587885 -0.25638428 -0.40723717 0.14985879 0.009674283 0.09644757 -0.18020813 0.18184388
-0.104556605 -0.029610243 0.027436415 -0.023116052 -0.3296614 -0.13626914 -0.11206055 0.1242299
0.17043413 0.15925236 -0.24800748 0.167224 -0.14332645 -0.24147536 -0.1452871 -0.13627529
0.14293359 -0.016371148 0.23550458 -0.20179468 -0.19954683 -0.2680761 -0.23012406 0.18610533
-0.14711817 -0.295335 -0.23634303 -0.27065516 0.24670538 0.19799589 -0.16917309 -0.06995331
0.17030278 -0.4747289 -0.30891427 -0.14685926 0.036347885 -0.12296633 0.14787778 0.12342401
-0.26590645 0.19133578 0.003967671 -0.06608206 -0.36186305 -0.056117486 -0.12926719 -0.2864215
0.21975282 -0.25159672 -0.16540043 -0.10578543 -0.09536693 0.10527986 0.03480738 -0.16943951
-0.28099552 -0.044852104 0.41013998 -0.09414706 0.15618934 -0.35489506 0.061311394 -0.028075773
-0.16147223 0.09749781 0.09423998 0.2430272 -0.18773538 -0.30253392 0.013350167 0.20716463
0.08646536 0.3693589 -0.27756873 0.08676763 0.19008976 0.18001755 -0.24788438 -0.39553553
0.024707492 0.07738652 -0.28325677 0.0881261 -0.08111701 -0.3501429 -0.35455406 -0.062305193
0.096211165 0.04752565 0.08284636 -0.022019494 -0.25303116 -0.28992504 -0.11790045 0.086158276

sequential_1/conv2d_3/Conv2D f4 [64, 3, 3, 3]
00000000: 3748 ea3d ec25 883d eda3 d13d 2a59 403e
00000010: c056 113e 38f8 603e 63f2 c43d 81ba 1c3e
00000020: b492 d7bc 8aca 4ebd dcf6 c63d 4a2a 4a3d
00000030: 5d3a 9abd 223e d43c b78c 683d c730 c7bd
00000040: 4121 4cbe b9d3 55be 9bc9 edbc 99ee e73b
00000050: 1a71 acbc 1678 bebd f5c2 afbd b488 11bd
00000060: db8d 38be b431 acbc 9e0e 50be ca1f 4bbe
00000070: f17c b9bd b287 4ebd a48d 01bd eb2e abbc
00000080: f80e 49bc 2109 533c 835f 193e 73c1 573d
00000090: e181 3dbe a4fc 14be 3aaf 64be 9f4f 943d
000000a0: a8bc 9b3c fc25 bcbc e767 263e c6da 3f3d
000000b0: d7a9 de3d b419 2dbe db8b 91bb 8f3f a0bd
000000c0: eae8 623d a0e6 813d da7e a13d dd53 6e3d
000000d0: 126a 493e 523a 283e fd2c a2bd dcbd e33c
000000e0: 2d43 b2bc 3220 babd 5a55 6fbd a7eb dcbd
000000f0: 7591 2ebe 49e7 533b 4301 02be ec63 11be
00000100: 1bd0 28bd 7964 dc3a be6a bebd 1351 24be
00000110: b1c0 45be 30f7 61be ab5a 2fbe 0a95 33be
00000120: b701 06bd 3388 6ebd 9c6d 2f3d 98ee 1bbe
00000130: a2bc 01be e27e eabd 2743 d5bd 148c 87bd
00000140: a9c6 91bd f85d c83d 8aaa de3d dc39 ddbc
00000150: 4e8d 8c3d 6006 cd3c 55e7 833d dbff 16be
00000160: d42b 25be 69ab 14be e9f6 e73d 568c be3d
00000170: 7065 cd3d b7ba bebc 62bf 243c e1de 94bd
00000180: 0fdd 6abd ca66 b7bc 2be4 b83c 8438 8c3d
00000190: 7f76 0c3d 5439 95bd 11f9 8abd f6fc f7bc
000001a0: 1087 23bd ff99 8d3d ec73 573d c010 17bd
000001b0: b796 433c 1e4b b6bd 49ce 8dbd c2d6 4bbd
000001c0: 3ba0 14be 8258 57bb fa61 67bd 8ca8 99bc
000001d0: 1f24 9bbd 9003 0e3c baf1 dd3d f157 cc3d
000001e0: 44f6 243e 66d8 28bd 85d4 cd3c eaed 89bd
000001f0: b998 d0bc dec8 acbd edd4 28bd c9b7 583c
00000200: a2bf 833d e829 72bc afc5 adbc eca9 833d
00000210: 49e8 303c 5188 f83d 89b7 c03d b7f7 b6bd
00000220: 0eae dabd c547 17be b8d9 ca3d acaf 013e
00000230: 9e68 d93d 506b c43d d41e 223e be57 c13c
00000240: 24fc 66be a946 08be 842a c1bd 66e6 ee3c
00000250: c2d6 b33d 0160 113d c9e8 a93d c40c 563c
00000260: 40ac 103e 3026 6abe 23d7 76be 5969 6ebe
00000270: 6768 9a3d 36a2 12bc 29d2 79bd c675 da3d
00000280: 3e4a 9c3d 1be7 153e 5082 01be 5ec1 89bd
00000290: f399 3c3c 63cc aabd 1611 e0bd 0374 65bd
000002a0: 4eff f33d c499 223e 419a 6a3c 3206 0abe
000002b0: 9935 07be 120b 7fbc f819 e63c 142b 0abe
000002c0: 6ee0 b4bd 2352 ec3d 2971 3f3e 935d 463c
000002d0: b7c3 05be bbc4 e0bc ffae 4ebd 1591 f6bd
000002e0: 5a94 b3bd 7fef 4a3d 2fe9 033e f9df 423e
000002f0: c9e0 303e 0a51 40bc 78d9 93bd 1dc8 be3d
00000300: a5f6 863d 8b81 b2bc bf23 293d e4b9 28ba
00000310: f50d 733c 131d b93d 540d 8f3b e539 a6bc
00000320: 4807 023d 783f 613c 60ea 78bd 2c04 6bbd
00000330: 3bb8 93bd 727c a7bd 18a1 4b3d 38e8 74bc
00000340: ac78 053d 0038 85bd 7ec9 253b 781e 07bd
00000350: a5fd 363c fb15 adbd 6de5 64bd d85b 9d3c
00000360: e482 0abe 9e98 4dbe ec15 d9bd d045 f7bd
00000370: f388 0e3b 4453 12be 45e0 ee3d 0f9a ac3d
00000380: 2f85 a93d e068 c1bc af63 babd cea5 eebd
00000390: d1ac 123d ac2b f3bc 9206 dd3d 1f58 523e
000003a0: 955c 303e f901 5b3e 330f 40bd 32e5 cc3d
000003b0: 1e76 b93d 9cc6 7abd aa47 a13d f33f 1cbd
000003c0: 1c5c b53d a9d1 193e c175 ef3b 4a0b ed3c
000003d0: ff5f 9fbd b6c3 dbbc 5f49 523e 3013 303e
000003e0: fc1c 443d 01c2 663e 9070 603e baae bb3d
000003f0: 84bd 4bbe 617e 4bbe 4054 cabd aa94 7ebd
0.11439555 0.06647858 0.102363445 0.18784013 0.14193249 0.21969688 0.09616544 0.1530552
-0.02631507 -0.050486125 0.097150534 0.049356736 -0.07530663 0.025908533 0.05677482 -0.097261004
-0.1993456 -0.20881547 -0.029026797 0.0070780036 -0.021050025 -0.09300248 -0.08582107 -0.03553076
-0.18022864 -0.021019794 -0.20318076 -0.19836345 -0.09057034 -0.050422378 -0.03162922 -0.020896396
-0.012271635 0.0128805945 0.14977841 0.052674722 -0.18506576 -0.145495 -0.22332469 0.07241749
0.019010857 -0.022967331 0.16250573 0.046839498 0.10872238 -0.16904336 -0.004441721 -0.07824623
0.055397905 0.06342816 0.07885523 0.058185447 0.19669369 0.16428497 -0.07918737 0.027800493
-0.021760548 -0.09088172 -0.058431007 -0.107871346 -0.17047675 0.0032333902 -0.12695794 -0.14198273
-0.04121409 0.0016814611 -0.09297703 -0.16046552 -0.19311787 -0.22066951 -0.17124431 -0.17537323
-0.03271648 -0.05823536 0.04282914 -0.15227735 -0.12669614 -0.11449982 -0.10413199 -0.06618515
-0.071179695 0.09783548 0.108723715 -0.027005129 0.06862889 0.025027454 0.064406075 -0.14746039
-0.1613 -0.14518513 0.11326391 0.09304111 0.10029113 -0.023282392 0.010055395 -0.07269073
-0.057339724 -0.02238788 0.022569736 0.06846717 0.034292694 -0.07286325 -0.06785787 -0.030271988
-0.039923728 0.06914138 0.052600786 -0.03688121 0.011937789 -0.08901046 -0.069241114 -0.049765356
-0.14514248 -0.0032859151 -0.056489922 -0.018757127 -0.07575249 0.008667842 0.10837121 0.09977711
0.16109568 -0.041222 0.025125751 -0.06734832 -0.025463449 -0.0843675 -0.041218687 0.013227412
0.064330354 -0.014780499 -0.021212427 0.064288944 0.010797569 0.12135375 0.094100066 -0.089339666
-0.106777295 -0.14773472 0.09904808 0.1266467 0.10615657 0.09590781 0.15832072 0.023601409
-0.22557122 -0.13308205 -0.09431937 0.029162597 0.08781196 0.035491947 0.08296353 0.013064567
0.14128208 -0.2286613 -0.24105506 -0.23282374 0.075394444 -0.008949807 -0.06099144 0.10666995
0.07631348 0.14638941 -0.12647367 -0.06726335 0.011511314 -0.08339765 -0.10940759 -0.05601884
0.1191393 0.1587897 0.014319004 -0.13478926 -0.1320404 -0.015566604 0.028088555 -0.13492996
-0.08831869 0.11539104 0.18695511 0.012107271 -0.1306294 -0.027437558 -0.050459858 -0.12039391
-0.0876853 0.049544808 0.12881921 0.19030751 0.17273249 -0.011738071 -0.07219213 0.09315512
0.065900125 -0.021790287 0.041293856 -0.0006436391 0.014834871 0.090387486 0.0043656025 -0.020291278
0.031745225 0.013748042 -0.060770392 -0.057377025 -0.072128735 -0.08178033 0.049714178 -0.014947943
0.032585785 -0.06504822 0.00252971 -0.03298804 0.011168872 -0.08451458 -0.05588286 0.019208834
-0.13526493 -0.2007775 -0.105998844 -0.120738626 0.0021749109 -0.14289576 0.1166387 0.08427822
0.08277356 -0.023609579 -0.091010444 -0.116527185 0.03580934 -0.02968391 0.10792269 0.20541428
0.17222817 0.21387471 -0.046889495 0.10004653 0.09055732 -0.061224565 0.07874997 -0.038146924
0.08855459 0.15021385 0.0073077385 0.028936047 -0.07781982 -0.02682672 0.20535801 0.1719482
0.047879204 0.22534944 0.21917939 0.09164186 -0.19896513 -0.19872428 -0.09879351 -0.062153496

sequential_1/conv2d_4/Conv2D f4 [64, 3, 3, 64]
00000000: c98b 80be c652 05be ce15 ffbc f391 abbd
00000010: b54e 79bc 7634 52be 9bf8 13be f4e8 0bbc
00000020: 1954 dbbd b006 9dbe 092e e8bd 1af9 2cbc
00000030: 212a 63be 2e21 bc3d cb8b 82be 3358 363d
00000040: 8943 24be 7f8e c9be 3dc3 c6be 5a32 113d
00000050: ebb9 7ebc a889 77be fcb0 00be 6feb 9d3d
00000060: 416a 58be 2cf1 46be 73b5 13be 832f 94bd
00000070: 28b7 2b3c 9853 4cbc fb56 0dbd 0641 00bd
00000080: 07fd f8bd ca8e 79be cb4f 84be e7b4 1cbc
00000090: 9c27 de3c ea54 86be 7b7b 0ebd 8eea fc3d
000000a0: 507e 8d3b 2674 6cbe e46d eebd b3df 533d
000000b0: c75b 0739 ab21 21be 12be 80be 7026 27be
000000c0: 89b6 c63d 0a38 fbbd ab12 8ebe 598c 533d
000000d0: 042b 55be 7859 6b3a a3cd 8cbd 0c1b 08be
000000e0: d6cc 27be 7908 553d 804e 603c e933 8fbe
000000f0: 382a 9ebc 7f19 77be 196b a0bd 4e62 edbd
00000100: 9ca4 60be d22a 663c 65a8 893d 140a 8e3d
00000110: e739 643d 4622 9fbb 51c4 6ebd 725c 063d
00000120: 3cfb 3a3b 0a5f 0abe 704a 83bc 0bec 41bd
00000130: 55ba 4ebb 36ac 263b 5cfa a53c 0f2e 803d
00000140: ee34 6fbe caf5 33be 364d 67be d680 933d
00000150: 7981 0cbd 1fa9 21be ff66 1ebd 1961 d6bb
00000160: aa99 d1bd d601 0abe b84e 94bd 1cb3 debd
00000170: c84f 4fbd 6165 1fbd e781 f93b 9151 d4bd
00000180: be37 ed3c 0d0b db3b c254 86bd 06fb 62bd
00000190: f900 4cbb 084d 82be 2208 71bd 7107 a1bc
000001a0: 5b3f 84bc 64b9 8dbe cfb4 44bd 7525 63bc
000001b0: e03b 313d 014d 133a b8ed 89bd 7f61 2f3d
000001c0: a27b 513a 14f0 98bc c2c4 d9bd 030a 5e3d
000001d0: c8f3 dfbd 587e 8e3c ca90 1c3d a997 15be
000001e0: 9499 9ebd 98cb 3cbb 1dea 1bbd 5c4a 9cbe
000001f0: bab5 313c b646 d9bd ec3d d23c 4610 01bb
00000200: e622 10be 943a a4bc 5c99 bbbd 47d6 f7bb
00000210: 2442 7e3d 4057 3b3d f472 863d 36bf 023d
00000220: a07c 593c 4264 0f3c 97ad 743c 32d4 95bd
00000230: 7ce9 fc3b 7b36 9bbc b60a d1bc 80a2 b43b
00000240: 13be 03be 7941 8bbd 028b 0bbd 8379 00bd
00000250: 5115 b03c 4d1e e4bc 3a1a f8bd 8d1a 65bb
00000260: 1028 44bc 83b2 a5bd b472 1fbc e5d3 b4bd
00000270: 9214 dfbb 7fa3 063e 7284 dabc ea20 90bd
00000280: b576 dcbc 2146 103c 0e28 ddbd 67bc 813d
00000290: 37f4 cdbc ddda 0ebe 7319 99bd 2f89 84bd
000002a0: 35ca 4e3d de4e 35be 86a0 e9ba 5938 9a3c
000002b0: 0b34 b839 5c65 4abd 6bbe c13d a7a1 6a3d
000002c0: 507a 483d 0c7e c83c 3e85 503c c7a4 3ebc
000002d0: a45b a7bd a9e9 84bd fd72 cf3c cec6 ddbd
000002e0: 9e42 8cbd 84b7 dcbb 7208 5dbc 3cd0 87be
000002f0: baa8 49bb 9585 a9bd 4893 ebb9 0c7a a73c
00000300: f525 4cbe 0588 4fbd f7b7 a73d eb88 813b
00000310: e51a 283d 0f17 a1bd 0819 d3bd c550 2f3d
00000320: 47ae 8cbd b96b 50be a2cc f8bd 33eb e0bd
00000330: 52af 7dbe 002e 8cbc c3f2 1abe f21a 52bd
00000340: 7441 48be d239 e2be c84c bfbe 81fc 8cbc
00000350: 362a 9c3d 78e6 b9be 8d02 b6bd bb3c 7e3d
00000360: 7df8 d0bd a1fc 22bd d6af 84bb 93de bfbd
00000370: 4501 b53c 0454 0c3c 1884 dc3a fb03 9cbd
00000380: f0b9 c23c ebff aebd 7949 d4bd dca9 d2bd
00000390: 9a7b 99bc 4a10 68be 1577 153d 8e97 b83d
000003a0: 89e9 b6bc ad28 f8bd a7c6 53bc 4440 1bbd
000003b0: b65f 8abd b6f7 f6bc e22a 5bbe b02a 1dbc
000003c0: 27b9 3d3d a2e5 a3bd 8f5d 91be 93ae d93d
000003d0: 990c 093c e89a dbbd 64f6 c1bc 18e9 e0bc
000003e0: d8b2 8a3b 79d6 08bd 9a18 9bbc d449 3dbe
000003f0: 5ee9 663b 1fc3 aebe 5c90 94bc c94b b5bd
-0.25106648 -0.13019857 -0.031138327 -0.08377447 -0.015216519 -0.20527825 -0.14450304 -0.008539427
-0.107094 -0.30669165 -0.113369055 -0.010557437 -0.2218404 0.09186016 -0.2549728 0.044517707
-0.16041388 -0.39366528 -0.3882083 0.03544841 -0.015547256 -0.24173605 -0.12567514 0.07710921
-0.21134283 -0.19427937 -0.14424686 -0.07235625 0.01048068 -0.012471102 -0.03450678 -0.03131201
-0.12157636 -0.24370876 -0.25842127 -0.009564615 0.027118497 -0.2623666 -0.03478573 0.12349425
0.004318036 -0.23091182 -0.11642054 0.051727008 0.00012908793 -0.157355 -0.25145012 -0.16323256
0.097027846 -0.12266548 -0.27748618 0.051647518 -0.2081719 0.00089778705 -0.068751596 -0.13291568
-0.16386732 0.052010033 0.013690591 -0.27969292 -0.01930724 -0.2413082 -0.07832927 -0.11591016
-0.21937793 0.014048295 0.06721572 0.06935516 0.055719282 -0.0048563806 -0.05829269 0.032803006
0.0028531095 -0.13512817 -0.016026706 -0.04734425 -0.0031544168 0.0025432236 0.020260982 0.06258785
-0.23360035 -0.1757423 -0.22588047 0.07202308 -0.034303162 -0.15787171 -0.038672443 -0.0065423367
-0.10234387 -0.13477263 -0.07241577 -0.10874006 -0.050613195 -0.03891504 0.0076143625 -0.1036712
0.028957244 0.006684667 -0.06559135 -0.055415176 -0.003112851 -0.25449395 -0.058845647 -0.019656869
-0.016143491 -0.27680504 -0.048023995 -0.013863911 0.043269992 0.00056190795 -0.067347944 0.04281759
0.000799114 -0.018669166 -0.10633232 0.054208767 -0.109351695 0.01739423 0.03822402 -0.14608635
-0.077441365 -0.0028807875 -0.038065065 -0.30525482 0.01084655 -0.1060919 0.025664292 -0.0019693538
-0.14075813 -0.020047463 -0.0916011 -0.0075633856 0.062074795 0.045737505 0.06564894 0.031920634
0.013274342 0.008751931 0.014933965 -0.07315864 0.007718263 -0.018946877 -0.025517803 0.0055125356
-0.12865476 -0.06799597 -0.034068115 -0.031365883 0.02149454 -0.02784648 -0.12114377 -0.0034958452
-0.011972442 -0.08090689 -0.009731937 -0.08829478 -0.006807872 0.13148306 -0.026674483 -0.07037528
-0.026912073 0.0088057825 -0.107986555 0.06334763 -0.025140865 -0.13950677 -0.07475557 -0.06471478
0.05048581 -0.17705867 -0.0017824329 0.018825697 0.0003513399 -0.04941307 0.094601475 0.05728307
0.04894477 0.024474166 0.01272708 -0.011635966 -0.08171776 -0.0648988 0.025323385 -0.108289346
-0.06848644 -0.006735744 -0.013490783 -0.26526058 -0.0030770735 -0.08277432 -0.00044932426 0.020443939
-0.19936354 -0.050666828 0.081893854 0.0039530895 0.041041274 -0.07865726 -0.10307509 0.042801637
-0.06869178 -0.20353593 -0.121484056 -0.10982361 -0.2477391 -0.017111778 -0.15131669 -0.05129523
-0.19556218 -0.44184738 -0.37363267 -0.017210247 0.076252386 -0.36308646 -0.08887205 0.062069636
-0.102036454 -0.039791707 -0.0040492816 -0.093686245 0.022095332 0.008564953 0.0016824035 -0.07617947
0.023770303 -0.08544906 -0.10365576 -0.10286304 -0.018735696 -0.22662464 0.03649052 0.09013282
-0.022328155 -0.12117133 -0.01292578 -0.037903085 -0.06756537 -0.030147415 -0.21403077 -0.009592697
0.046319153 -0.08002783 -0.28391692 0.106290005 0.00836482 -0.107229054 -0.023677059 -0.027454898
0.0042327456 -0.033407662 -0.01893263 -0.18485194 0.0035234313 -0.3413324 -0.018135242 -0.088523455

sequential_1/conv2d_5/Conv2D f4 [64, 3, 3, 64]
00000000: 643f ae3d 10f5 46bd 9e5d 373e 74a1 343e
00000010: 085b 14be 7742 84bd b64f 5bbd 5d9e 3b3d
00000020: 3bdc 3f3e 9b7e 483d 0eb6 d43d c0ba 35be
00000030: f2d6 2d3d 7fc8 2e3d 8c36 27be f6cf 043e
00000040: 9938 94be ba30 9ebe 3166 edbd d448 06bd
00000050: 23ea 3ebe b7d3 9cbd b4f2 5fbe 25e4 b1bc
00000060: b494 653d a316 443d 63d4 173d d8b9 fdbd
00000070: e28a 52be f77a e53d 76bb 17be f669 d4bc
00000080: 4d24 7cbd 009a 25be 54e7 eabc dbe8 0dbe
00000090: c4ab 8dbe 23df c13d a127 4ebb 68f7 d2bd
000000a0: 113c d63c c370 21be 7fc7 34bd 83ab b63d
000000b0: 8cbe e53d 72bc 3bbe 4e99 733d 5370 e4bd
000000c0: e4f6 6e3d 50ad 10be 2267 01be 2742 73bc
000000d0: 83bb 84be 5911 cfbc d6ea a6be ede1 61bd
000000e0: 26bb 56be ffb3 b2bd 009d 45bc 0c9b 333c
000000f0: 00b0 683e 14a6 a43b a7a9 bbbd 47cd d23d
00000100: 1209 85bc 04e8 443c d994 bfbd 0007 6c3d
00000110: 2bf6 edbc 0fd8 70bc e53c 2a3c 8a8f df3d
00000120: 40e9 f5bc a442 be39 072a 2d3d 9515 01be
00000130: aed7 be3b 6f5d 8dbd c1ba fdbc 865b c43d
00000140: 5a1a 5abe bd42 c7bd 59f1 273d e957 d1bd
00000150: 892f 8abe defc ee3d e58b e8bd 7d13 abba
00000160: b982 fbbd 8635 d23d ea00 ce3d 5293 fbbd
00000170: 84e7 b4bd b068 97bd c663 79bd 9d54 74be
00000180: 6f3c 89be dfa2 06be 5e0e 00be fdfa 7d3d
00000190: bee1 afbe 792a 5e3d b733 ccbd 9f1c a03d
000001a0: 17ac 06bb 16e5 4e3c fe29 9e3d 89ba 8d3c
000001b0: 8f1e 3f3d e342 55bc b4e6 a8bd dceb 7a3d
000001c0: 0758 ec3d d6ca d7bd 7ad2 f2bd 3410 b7bd
000001d0: 3565 16be 7200 0dbe 9d9e a23d b938 d73d
000001e0: e333 0bbd bad6 bf3d ef47 9bbd 383f 1bbc
000001f0: e058 293e 245d 92bc 9093 9abd c78e 80bc
00000200: 7c4a a03d d934 8e3d 081b 9b3d 375c 423e
00000210: 3640 eabd 8ca4 71bd f385 c23d 8d32 d33d
00000220: 3d67 ce3d bd27 013e e5e2 c8bd 6fbd 88be
00000230: 55ed 15bd c2b0 86bd 73df 1d3d 18f5 343d
00000240: 5bf8 86be 0bfe d8bd 8fd4 5fbd 6fa3 0dbe
00000250: 234e 83be c27f 39bb f1a8 75be 3306 863d
00000260: 2a08 adbd 9f08 233a f17f b1bd 1e8a 01bd
00000270: 8749 ea3c cfcf 043e 3478 54bd a070 a9bc
00000280: 9af5 31be 101f cfbd 131f 84bd b718 5a3d
00000290: b70c 0abc c3b0 c93d 1434 0cbd 8b41 36bd
000002a0: 0b41 a3be 5eb6 afbd 0d32 1bbd b600 4cbb
000002b0: c6d7 513e 3719 ba3d 6bfb 8e3d 2813 2c3c
000002c0: e7ca 223e 60bf 82bc def4 17be ef05 98bd
000002d0: 8c15 0fbe e13e 8b3d f59e 32be c136 2cbd
000002e0: 5f9c a63d 8cd6 023d 80a3 6abe 61ce ffbd
000002f0: bfa6 063e 9bfe 1abe 22a0 f2bd 664c 2ebe
00000300: 0b99 12bd 7cd3 10bd da6f 9ebd 5d20 243d
00000310: 49ea dbbd 42b5 f6bd 4f93 a4bd 90ea 363d
00000320: 0c3a 453e cd9f 3fbd 59a8 083e 4253 89be
00000330: 88a8 a2bd 8960 02be daef f63b 6ff0 933d
00000340: ee89 e8bd 3008 d53d 7ecb 32be b5e4 abbd
00000350: a107 56be f518 23bd 26ec 84be 9f63 453c
00000360: 3b75 ea3d f6b7 f63d b189 4e3d 470d 42be
00000370: cbe3 11be 25b3 dd3d 8550 5a3d c299 44bc
00000380: 19ae 51bd 26cb 083e 0230 4f3d 313e 493c
00000390: 7bda 59be d8a4 823c 5f4e 51bc 6c8d e8bd
000003a0: ee6f 79bd 7fab 75be 8eda 113d 6145 83bd
000003b0: 426d 29bc 78e2 f7bb cc4f b7bc a6b4 07be
000003c0: 2c86 1e3d a76d 593c 0538 9dbb 6ef4 dfbb
000003d0: 1021 8fbe a477 d0bc e1b5 54be 5830 0abd
000003e0: 8c98 15be 3bbb 42be 398e 003d 955c 703e
000003f0: 3b36 eabd f650 813b 0de1 6f3d 9f15 be3d
0.085081846 -0.048573554 0.17906806 0.17639714 -0.1448785 -0.0645799 -0.053542815 0.045805324
0.18736355 0.048948865 0.10386287 -0.1774702 0.042441316 0.042671677 -0.16329402 0.12969956
-0.2894943 -0.3089655 -0.11591757 -0.032784298 -0.18644004 -0.07657569 -0.21869928 -0.021715233
0.056050017 0.04787315 0.037067782 -0.123889625 -0.20560792 0.11205094 -0.14817604 -0.025929432
-0.061558057 -0.16172028 -0.028674759 -0.13858359 -0.2767011 0.09466388 -0.0031456726 -0.10301095
0.026151689 -0.15765671 -0.044135567 0.08919432 0.112179846 -0.18333605 0.059472375 -0.11154237
0.058340922 -0.14128613 -0.12636998 -0.014847315 -0.2592431 -0.025276827 -0.3260104 -0.0551471
-0.20969829 -0.08725738 -0.0120613575 0.010962259 0.22723389 0.005024681 -0.09163218 0.1029306
-0.016239677 0.012018207 -0.09354562 0.057623863 -0.029048046 -0.01469995 0.010390495 0.1091605
-0.030018449 0.00036289275 0.04227641 -0.12605889 0.005824051 -0.06902587 -0.03097284 0.09587769
-0.21299115 -0.09729526 0.04100165 -0.10221846 -0.2698939 0.11669324 -0.11354808 -0.0013052073
-0.12280793 0.10264115 0.10058768 -0.122839585 -0.088332206 -0.073930144 -0.060886167 -0.23860402
-0.2680392 -0.13148068 -0.1250548 0.06200694 -0.34351915 0.054239724 -0.09970801 0.07817959
-0.002054935 0.0126278605 0.07722853 0.017300861 0.046660002 -0.013016435 -0.08247128 0.06126009
0.115402274 -0.10536735 -0.118565515 -0.089386374 -0.14687045 -0.13769701 0.07940409 0.10508866
-0.03398503 0.09367128 -0.075820796 -0.009475522 0.1653781 -0.017866679 -0.075476766 -0.015693082
0.07826707 0.06943674 0.07573515 0.1898049 -0.114380285 -0.058994815 0.09498205 0.10312376
0.10078285 0.12612815 -0.09808902 -0.26707026 -0.03660329 -0.065766826 0.038543176 0.044179052
-0.26361355 -0.1059533 -0.05464607 -0.13831876 -0.2564555 -0.002830491 -0.23990227 0.06544151
-0.08448823 0.0006219241 -0.08666981 -0.03162586 0.028599514 0.12969898 -0.051872447 -0.020683587
-0.17378846 -0.101133466 -0.064512394 0.053246226 -0.008425883 0.09848168 -0.034229353 -0.0444961
-0.3188556 -0.08579706 -0.03788953 -0.0031128353 0.20492467 0.090868406 0.06981548 0.010502614
0.15897714 -0.015960395 -0.14839503 -0.07423007 -0.13973063 0.067991026 -0.1744345 -0.042044405
0.08135294 0.03194289 -0.22913933 -0.124905355 0.13149546 -0.15136187 -0.11846949 -0.17021331
-0.035790484 -0.035357937 -0.07736178 0.040069927 -0.10738046 -0.12046291 -0.080359094 0.04465729
0.19260424 -0.046783257 0.1334547 -0.26821333 -0.07942301 -0.12732138 0.0075359168 0.072235934
-0.11354433 0.10401952 -0.17460439 -0.08393232 -0.20901348 -0.039818723 -0.25961417 0.012047677
0.11448141 0.120468065 0.05042428 -0.18950377 -0.14247052 0.10825185 0.053299446 -0.011999549
-0.051191423 0.13358745 0.050582893 0.012282894 -0.2127475 0.015947744 -0.012775033 -0.11355099
-0.06089776 -0.23991202 0.03560882 -0.06409717 -0.0103409905 -0.007564839 -0.022376917 -0.13252506
0.038702175 0.013270772 -0.004797938 -0.006834558 -0.27954912 -0.025447674 -0.20772506 -0.03373751
-0.14608973 -0.19016735 0.031385634 0.23472817 -0.11436125 0.003946419 0.058564235 0.09281468
